…
1d0c6a4-a4e5-4d50-f6d2-975fbda4f939","colab":{"base_uri":"https://localhost:8080/","height":799}},"source":["model.summary()"],"execution_count":137,"outputs":[{"output_type":"stream","text":["Model: \"functional_8\"\n","_________________________________________________________________\n","Layer (type)                 Output Shape              Param #   \n","=================================================================\n","input (InputLayer)           [(None, 28, 28)]          0         \n","_________________________________________________________________\n","flatten (Flatten)            (None, 784)               0         \n","_________________________________________________________________\n","hidden1 (Dense)              (None, 256)               200960    \n","_________________________________________________________________\n","batch_normalization_23 (Batc (None, 256)               1024      \n","_________________________________________________________________\n","activation_22 (Activation)   (None, 256)               0         \n","_________________________________________________________________\n","dropout_22 (Dropout)         (None, 256)               0         \n","_________________________________________________________________\n","hidden2 (Dense)              (None, 100)               25700     \n","_________________________________________________________________\n","batch_normalization_24 (Batc (None, 100)               400       \n","_________________________________________________________________\n","activation_23 (Activation)   (None, 100)               0         \n","_________________________________________________________________\n","dropout_23 (Dropout)         (None, 100)               0         \n","_________________________________________________________________\n","hidden3 (Dense)              (None, 100)               10100     \n","_________________________________________________________________\n","batch_normalization_25 (Batc (None, 100)               400       \n","_________________________________________________________________\n","activation_24 (Activation)   (None, 100)               0         \n","_________________________________________________________________\n","dropout_24 (Dropout)         (None, 100)               0         \n","_________________________________________________________________\n","hidden4 (Dense)              (None, 50)                5050      \n","_________________________________________________________________\n","batch_normalization_26 (Batc (None, 50)                200       \n","_________________________________________________________________\n","activation_25 (Activation)   (None, 50)                0         \n","_________________________________________________________________\n","dropout_25 (Dropout)         (None, 50)                0         \n","_________________________________________________________________\n","output (Dense)               (None, 10)                510       \n","=================================================================\n","Total params: 244,344\n","Trainable params: 243,332\n","Non-trainable params: 1,012\n","_________________________________________________________________\n"],"name":"stdout"}]},{"cell_type":"markdown","metadata":{"id":"8noHcg8C6xMM"},"source":["### 모델 컴파일\n","- 평가(metrics)방식의 다른 방법\n","  - `tf.keras.metrics.Mean`\n",
…
