…
7693","colab":{"base_uri":"https://localhost:8080/","height":527}},"source":["model = model_build()\n","\n","model.summary()"],"execution_count":42,"outputs":[{"output_type":"stream","text":["Model: \"functional_29\"\n","_________________________________________________________________\n","Layer (type)                 Output Shape              Param #   \n","=================================================================\n","input_15 (InputLayer)        [(None, 32, 32, 3)]       0         \n","_________________________________________________________________\n","conv2d_42 (Conv2D)           (None, 32, 32, 32)        896       \n","_________________________________________________________________\n","max_pooling2d_42 (MaxPooling (None, 16, 16, 32)        0         \n","_________________________________________________________________\n","conv2d_43 (Conv2D)           (None, 16, 16, 64)        18496     \n","_________________________________________________________________\n","max_pooling2d_43 (MaxPooling (None, 8, 8, 64)          0         \n","_________________________________________________________________\n","conv2d_44 (Conv2D)           (None, 8, 8, 128)         73856     \n","_________________________________________________________________\n","max_pooling2d_44 (MaxPooling (None, 4, 4, 128)         0         \n","_________________________________________________________________\n","flatten_14 (Flatten)         (None, 2048)              0         \n","_________________________________________________________________\n","dense_42 (Dense)             (None, 256)               524544    \n","_________________________________________________________________\n","dense_43 (Dense)             (None, 128)               32896     \n","_________________________________________________________________\n","dense_44 (Dense)             (None, 10)                1290      \n","=================================================================\n","Total params: 651,978\n","Trainable params: 651,978\n","Non-trainable params: 0\n","_________________________________________________________________\n"],"name":"stdout"}]},{"cell_type":"markdown","metadata":{"id":"dYJ4JOsKVpPc"},"source":["### 모델 학습 및 평가\n","- [런타임]에서 GPU 설정\n"]},{"cell_type":"code","metadata":{"id":
…
9","colab":{"base_uri":"https://localhost:8080/","height":697}},"source":["model2 = model_build2()\n","\n","model2.summary()"],"execution_count":51,"outputs":[{"output_type":"stream","text":["Model: \"functional_33\"\n","_________________________________________________________________\n","Layer (type)                 Output Shape              Param #   \n","=================================================================\n","input_17 (InputLayer)        [(None, 32, 32, 3)]       0         \n","_________________________________________________________________\n","conv2d_48 (Conv2D)           (None, 32, 32, 32)        896       \n","_________________________________________________________________\n","batch_normalization_3 (Batch (None, 32, 32, 32)        128       \n","_________________________________________________________________\n","max_pooling2d_48 (MaxPooling (None, 16, 16, 32)        0         \n","_________________________________________________________________\n","conv2d_49 (Conv2D)           (None, 16, 16, 64)        18496     \n","_________________________________________________________________\n","batch_normalization_4 (Batch (None, 16, 16, 64)        256       \n","_________________________________________________________________\n","max_pooling2d_49 (MaxPooling (None, 8, 8, 64)          0         \n","_________________________________________________________________\n","conv2d_50 (Conv2D)           (None, 8, 8, 128)         73856     \n","_________________________________________________________________\n","batch_normalization_5 (Batch (None, 8, 8, 128)         512       \n","_________________________________________________________________\n","max_pooling2d_50 (MaxPooling (None, 4, 4, 128)         0         \n","_________________________________________________________________\n","dropout_2 (Dropout)          (None, 4, 4, 128)         0         \n","_________________________________________________________________\n","flatten_16 (Flatten)         (None, 2048)              0         \n","_________________________________________________________________\n","dense_48 (Dense)             (None, 256)               524544    \n","_________________________________________________________________\n","dropout_3 (Dropout)          (None, 256)               0         \n","_________________________________________________________________\n","dense_49 (Dense)             (None, 128)               32896     \n","_________________________________________________________________\n","dense_50 (Dense)             (None, 10)                1290      \n","=================================================================\n","Total params: 652,874\n","Trainable params: 652,426\n","Non-trainable params: 448\n","_________________________________________________________________\n"],"name":"stdout"}]},{"cell_type":"markdown","metadata":{"id":"bpQjxUXvZa0k"},"source":["### 모델 학습 및 평가\n","- [런타임]에서 GPU 설정\n"]},{"cell_type":"code","metadata":{"id
…
