…
mestamp":1603436758750,"user":{"displayName":"김정훈","photoUrl":"https://lh3.googleusercontent.com/a-/AOh14Gh8ozrjTEd4aTd3Fh173JQLBXjO_CSmgf9PQPLonQ=s64","userId":"01114927838914716549"},"user_tz":-540},"id":"wwWZ47NHolB6","outputId":"5d98b739-cc70-4327-c6c5-36aff2c58547"},"outputs":[{"name":"stdout","output_type":"stream","text":["Model: \"sequential_11\"\n","_________________________________________________________________\n","Layer (type)                 Output Shape              Param #   \n","=================================================================\n","embedding_8 (Embedding)      (None, 500, 32)           320000    \n","_________________________________________________________________\n","conv1d (Conv1D)              (None, 494, 32)           7200      \n","_________________________________________________________________\n","max_pooling1d (MaxPooling1D) (None, 70, 32)            0         \n","_________________________________________________________________\n","conv1d_1 (Conv1D)            (None, 66, 32)            5152      \n","_________________________________________________________________\n","max_pooling1d_1 (MaxPooling1 (None, 13, 32)            0         \n","_________________________________________________________________\n","global_max_pooling1d (Global (None, 32)                0         \n","_________________________________________________________________\n","dense_6 (Dense)              (None, 1)                 33        \n","=================================================================\n","Total params: 332,385\n","Trainable params: 332,385\n","Non-trainable params: 0\n","_________________________________________________________________\n"]}],"source":["model = build_model()\n","model.summary()"]},{"cell_type":"markdown","metadata":{"id":"0qUbPGdmpHpQ"},"source":["### 모델 학습"]},{"cell_type":"code","exe
…
